{"modelTopology":{"class_name":"Sequential","config":{"name":"sequential_1555","layers":[{"class_name":"Dense","config":{"units":8,"activation":"sigmoid","use_bias":true,"kernel_initializer":{"class_name":"VarianceScaling","config":{"scale":1,"mode":"fan_avg","distribution":"normal","seed":null}},"bias_initializer":{"class_name":"Zeros","config":{}},"kernel_regularizer":null,"bias_regularizer":null,"activity_regularizer":null,"kernel_constraint":null,"bias_constraint":null,"name":"dense_Dense3109","trainable":true,"batch_input_shape":[null,4],"dtype":"float32"}},{"class_name":"Dense","config":{"units":2,"activation":"softmax","use_bias":true,"kernel_initializer":{"class_name":"VarianceScaling","config":{"scale":1,"mode":"fan_avg","distribution":"normal","seed":null}},"bias_initializer":{"class_name":"Zeros","config":{}},"kernel_regularizer":null,"bias_regularizer":null,"activity_regularizer":null,"kernel_constraint":null,"bias_constraint":null,"name":"dense_Dense3110","trainable":true}}]},"keras_version":"tfjs-layers 2.0.0","backend":"tensor_flow.js"},"format":"layers-model","generatedBy":"TensorFlow.js tfjs-layers v2.0.0","convertedBy":null,"weightsManifest":[{"paths":["./best.weights.bin"],"weights":[{"name":"dense_Dense3109/kernel","shape":[4,8],"dtype":"float32"},{"name":"dense_Dense3109/bias","shape":[8],"dtype":"float32"},{"name":"dense_Dense3110/kernel","shape":[8,2],"dtype":"float32"},{"name":"dense_Dense3110/bias","shape":[2],"dtype":"float32"}]}]}